…
lr               : 0.01
max_iteration    : 100000
log_interval     : 100
eval_interval    : 2000
early_stop       : 5
early_stop_pretrain : 5
test_dir         : 
data_root        : data
log_root         : log
model_root       : model
affix            : 
save             : False
load             : False
load_dir         : 
output_dir       : output
output_name      : output.txt
nway             : 5
shots            : 1
freeze_cnn       : False
model_folder     : model\5way_1shot_gnn_
log_folder       : log\5way_1shot_gnn_
gnnModel(
  (cnn_feature): EmbeddingCNN(
    (module_list): ModuleList(
      (0): Conv2d(3, 32, kernel_size=(3, 3), stride=(1, 1), padding=(1, 1), bias=False)
      (1): BatchNorm2d(32, eps=1e-05, momentum=0.1, affine=True, track_running_stats=True)
      (2): MaxPool2d(kernel_size=2, stride=2, padding=0, dilation=1, ceil_mode=False)
      (3): LeakyReLU(negative_slope=0.1, inplace=True)
      (4): Conv2d(32, 64, kernel_size=(3, 3), stride=(1, 1), padding=(1, 1), bias=False)
      (5): BatchNorm2d(64, eps=1e-05, momentum=0.1, affine=True, track_running_stats=True)
      (6): MaxPool2d(kernel_size=2, stride=2, padding=0, dilation=1, ceil_mode=False)
      (7): LeakyReLU(negative_slope=0.1, inplace=True)
      (8): Conv2d(64, 128, kernel_size=(3, 3), stride=(1, 1), padding=(1, 1), bias=False)
      (9): BatchNorm2d(128, eps=1e-05, momentum=0.1, affine=True, track_running_stats=True)
      (10): MaxPool2d(kernel_size=2, stride=2, padding=0, dilation=1, ceil_mode=False)
      (11): LeakyReLU(negative_slope=0.1, inplace=True)
      (12): Conv2d(128, 64, kernel_size=(4, 4), stride=(1, 1), bias=False)
      (13): BatchNorm2d(64, eps=1e-05, momentum=0.1, affine=True, track_running_stats=True)
      (14): LeakyReLU(negative_slope=0.1, inplace=True)
    )
  )
  (gnn): GNN(
    (gnn_obj): GNN_module(
      (adjacency_list): ModuleList(
        (0): Adjacency_layer(
          (module_list): ModuleList(
            (0): Conv2d(69, 64, kernel_size=(1, 1), stride=(1, 1))
            (1): BatchNorm2d(64, eps=1e-05, momentum=0.1, affine=True, track_running_stats=True)
            (2): LeakyReLU(negative_slope=0.01)
            (3): Conv2d(64, 32, kernel_size=(1, 1), stride=(1, 1))
            (4): BatchNorm2d(32, eps=1e-05, momentum=0.1, affine=True, track_running_stats=True)
            (5): LeakyReLU(negative_slope=0.01)
            (6): Conv2d(32, 1, kernel_size=(1, 1), stride=(1, 1))
          )
        )
        (1): Adjacency_layer(
          (module_list): ModuleList(
            (0): Conv2d(85, 64, kernel_size=(1, 1), stride=(1, 1))
            (1): BatchNorm2d(64, eps=1e-05, momentum=0.1, affine=True, track_running_stats=True)
            (2): LeakyReLU(negative_slope=0.01)
            (3): Conv2d(64, 32, kernel_size=(1, 1), stride=(1, 1))
            (4): BatchNorm2d(32, eps=1e-05, momentum=0.1, affine=True, track_running_stats=True)
            (5): LeakyReLU(negative_slope=0.01)
            (6): Conv2d(32, 1, kernel_size=(1, 1), stride=(1, 1))
          )
        )
      )
      (graph_conv_list): ModuleList(
        (0): Graph_conv_block(
          (weight): Linear(in_features=69, out_features=16, bias=True)
          (bn): BatchNorm1d(16, eps=1e-05, momentum=0.1, affine=True, track_running_stats=True)
        )
        (1): Graph_conv_block(
          (weight): Linear(in_features=85, out_features=16, bias=True)
          (bn): BatchNorm1d(16, eps=1e-05, momentum=0.1, affine=True, track_running_stats=True)
        )
      )
      (last_adjacency): Adjacency_layer(
        (module_list): ModuleList(
          (0): Conv2d(101, 64, kernel_size=(1, 1), stride=(1, 1))
          (1): BatchNorm2d(64, eps=1e-05, momentum=0.1, affine=True, track_running_stats=True)
          (2): LeakyReLU(negative_slope=0.01)
          (3): Conv2d(64, 32, kernel_size=(1, 1), stride=(1, 1))
          (4): BatchNorm2d(32, eps=1e-05, momentum=0.1, affine=True, track_running_stats=True)
          (5): LeakyReLU(negative_slope=0.01)
          (6): Conv2d(32, 1, kernel_size=(1, 1), stride=(1, 1))
        )
      )
      (last_conv): Graph_conv_block(
        (weight): Linear(in_features=101, out_features=5, bias=True)
      )
    )
  )
)
iter: 0, spent: 6.7452 s, tr loss: 1.62613
================== eval ==================
iter: 0, va loss: 1.87842, va acc: 19.4311 %
==========================================
iter: 100, spent: 4.7458 s, tr loss: 1.65940
iter: 200, spent: 4.6464 s, tr loss: 1.63319
iter: 300, spent: 4.4996 s, tr loss: 1.62557
iter: 400, spent: 4.4578 s, tr loss: 1.61807
…
